models/1.pth (torch, 409760 bytes, 4 tensors)

weight f4 [128, 784]
00000000: ecea b9bc 28b5 e03c 217c 633c 7e44 afbc
00000010: 2e5d d03b 6e82 0f3b 9524 8b3c b8d4 e1ba
00000020: c02b 173c aa04 c33c a5a6 733b ea18 d13c
00000030: 2e07 50bc e12b b23c 4748 8e3c 3dc8 0b3d
00000040: b7a3 b1ba ac59 ea3c 4a63 9aba 718b bdbc
00000050: f331 12bd 079e b13c c1d0 c53c dc6d aeba
00000060: 4ab9 513c 7e96 a73c 5e91 e1bc 6e06 efba
00000070: 23a2 80bc ed74 0c3d 351e 0d3d 017d fcbb
00000080: d713 9ebc 2c34 05bd ea75 913c 953a fa3c
00000090: c322 5c3a 5e17 83bb f23f 09bd ae9d b2bc
000000a0: 93f0 fbbc 8a7b 3c3b d26c 9dbc ae6c 9b38
000000b0: 5d26 023d b535 08bd 15f0 f33c 9660 2cbc
000000c0: 3eca 10bd 3385 0d3d 425a 943c ae1f dfbb
000000d0: 1c32 f83b 9359 463c b7c5 27b9 a790 863c
000000e0: f02a 8dbc ec32 aa3c a304 d6bc eb1f 083d
000000f0: 60e2 31bc 5b3c f3bc d1a9 793c 911f 093d
00000100: c78f 11bc 2331 a83b 78b2 c93c 8520 75bc
00000110: 1b74 03bd 0537 f9bc b18d fe3c f336 023d
00000120: 55fd c13c 2eb9 163c bffa 89bc 110e a13a
00000130: 1402 6abc 1a32 d1bb ece6 493c 1421 0fbd
00000140: 02f4 8b3a f7e3 0cbd 5725 0f3c ea0e d63c
00000150: 10d7 0d3d 2503 323a d0b2 ff3c 2b25 a13c
00000160: 11f7 5e3c 90e3 82bc 5486 d43a f863 593c
00000170: 7e5d c83c 0357 83bb 6578 85bc 4086 8cbb
00000180: 3d6c e1bb b0b1 0d3d feaf f73c 26eb 49ba
00000190: 1c3a 043d fbf1 cfbb 3888 ce3b 8b6e 903c
000001a0: 97c1 733c 62a0 ed3c d14b 01bd 766e 033d
000001b0: 9822 9b3b 3f9c 9cbc 188c b4bc fa45 88bc
000001c0: f59e d43c b185 edbc a078 f33c 7442 513c
000001d0: 0537 14bc 4453 25ba 2b77 f53c 1a39 563b
000001e0: 2c19 07bc d264 55bc 8814 0e3d 14bc 78bb
000001f0: 6116 acbc 61d0 1bbc 2721 4abc b0bd 1f3d
00000200: dd00 88bc 6ab1 e2bc 99aa 81bc f7e1 9ebc
00000210: f4b7 943b d274 fe3c 144b 823c 8c39 b5bc
00000220: f66a 903c 4aed 2abc c880 a73c e4c5 a6bc
00000230: 6578 cfbb ca11 e7bc 079f 88bc 512d 8bbb
00000240: cae9 12bc 7831 02bd e11e f93c 6d2d a8bc
00000250: 691a a33c 022c f43c 27af a53c 902c cf3b
00000260: 334e 293d 1894 d43c b52b 99bc 5763 a0bc
00000270: 2185 e7bc e29d bd3b 379f c8bc cace 2c3c
00000280: 9147 57bc c9b3 16bd 1000 353c fd7c 42bb
00000290: 95b2 c13c ec4f 393c 5d5c 4fbc 4f87 84bc
000002a0: 05ae a3bc 4669 7dbc f7f0 82bb 04e7 9fbc
000002b0: e372 eebc 97a0 d83c 47b0 0c3d 05d9 d23b
000002c0: bb6c f03c e136 a8bc 3d50 69bc 1add 8ebc
000002d0: b323 933a 7ad2 5a3c cb45 db3a 7883 d23b
000002e0: 59d3 3c3d b455 153d daa5 223d f8c6 b0bb
000002f0: 0bf1 d0bc 64c7 a23c f44d 58bc fbd2 ac3b
00000300: c4c1 783c da67 c73c 32a0 55bc cbee b53c
00000310: 8f02 53bc 4f38 d93c 9f52 f73c 0e89 9f3b
00000320: 8cbd b7bc b62c d2bc 9aef 023d b83b c2bc
00000330: 1dd1 123c 7da3 dcbc 37f6 0e3d ef04 acbc
00000340: 828c 89bc 92fd f23c f5b9 cebc ab8b 163d
00000350: a98d 3b3d b419 29bb b3d9 d3bb d48a 9d3c
00000360: 50e1 213d 3a5c 64bc 110b 3ebc 8974 c8bb
00000370: 1638 c13c cd24 ca3c 6d8c 0e3c 9386 25bc
00000380: aa99 1e3c 385a f53c db4b f33c ee7b ebbc
00000390: 5a14 dcbc d8d8 b43b 69ed 33bc d7aa f23c
000003a0: a93c fd3c 097c 4abc 8e35 89bc c2bf f2bc
000003b0: b63c 57bc 1af4 5dbb 7d18 e9bc 84e1 f23b
000003c0: 3dd7 a7bc b497 b1bc 87bc 593c 7d94 b03b
000003d0: dd8f 86bc e995 deba 7df1 98bc 2cce f13c
000003e0: e805 9fb9 cf72 babc 6e0e cebc a5d9 963b
000003f0: b025 00bd fd85 cd3c fe00 a8bc 80e5 edbb
-0.022695027 0.027430132 0.013884575 -0.021394964 0.006358764 0.002189781 0.016985217 -0.0017229533
0.009226739 0.023805935 0.0037178185 0.025524575 -0.012697024 0.021749439 0.017368449 0.03412651
-0.0013552819 0.028607212 -0.0011778858 -0.02313778 -0.035692167 0.021681799 0.024147393 -0.0013307887
0.012800524 0.020457502 -0.027535137 -0.0018236169 -0.015702313 0.034291197 0.034452636 -0.0077053313
-0.01929657 -0.032520458 0.017756421 0.030545512 0.0008397514 -0.0040005883 -0.03350825 -0.021803703
-0.030754363 0.0028760158 -0.019216929 7.411219e-05 0.031774867 -0.033254344 0.029777566 -0.010521075
-0.035349123 0.034550857 0.018109445 -0.0068091964 0.007574333 0.012106317 -0.00016000016 0.016426397
-0.017232388 0.020776235 -0.026125258 0.033233564 -0.010857195 -0.029691866 0.015238241 0.03347737
-0.008884377 0.0051328107 0.024621233 -0.014961367 -0.03209315 -0.030421743 0.031073423 0.031790685
0.023680368 0.009199424 -0.016843198 0.0012287517 -0.014282722 -0.0063841464 0.0123231225 -0.034943655
0.0010677578 -0.03439709 0.00873693 0.026130158 0.034628928 0.00067906297 0.031213194 0.019671043
0.01360871 -0.01597765 0.0016214349 0.013268463 0.024458643 -0.0040081753 -0.01629276 -0.004288465
-0.006879358 0.034593284 0.030235287 -0.00077025814 0.03228198 -0.006345985 0.0063028596 0.017630836
0.014877698 0.02900714 -0.031566445 0.032087766 0.0047343485 -0.019117473 -0.022039458 -0.01663493
0.025954703 -0.028994413 0.029720604 0.012772191 -0.009046321 -0.0006306658 0.02996405 0.0032687844
-0.008245748 -0.013024526 0.03468755 -0.00379539 -0.021006765 -0.009510131 -0.012337006 0.03899926
-0.016601974 -0.027672488 -0.015828418 -0.019394858 0.0045385305 0.031061564 0.01590494 -0.022122167
0.017629128 -0.010432551 0.02044715 -0.020358033 -0.006331491 -0.028206725 -0.016677393 -0.0042473455
-0.0089668725 -0.03178546 0.030410232 -0.020529473 0.019910054 0.02980614 0.02022512 0.006322451
0.041334342 0.025949523 -0.018697599 -0.019578619 -0.028261723 0.0057866434 -0.024489982 0.010547349
-0.013139621 -0.03679255 0.011047378 -0.002967655 0.023644725 0.011310559 -0.0126562985 -0.016177801
-0.01998044 -0.015466994 -0.0039960104 -0.019519337 -0.029107517 0.026443763 0.0343478 0.006434562
0.029348722 -0.02053398 -0.014240322 -0.017439414 0.0011225849 0.013355846 0.0016729174 0.0064243637
0.046099994 0.036458686 0.03970895 -0.0053948127 -0.025505563 0.019870467 -0.013202179 0.0052741743
0.015182916 0.024341512 -0.013038682 0.022208592 -0.012879028 0.026516108 0.030190764 0.004868633
-0.02242925 -0.025656085 0.031966783 -0.023710117 0.008960989 -0.026933426 0.034902778 -0.020998446
-0.016790632 0.029661927 -0.025235156 0.03675429 0.045789395 -0.0025802674 -0.0064651608 0.019231237
0.039521515 -0.013938004 -0.011599318 -0.0061174077 0.023586314 0.024675751 0.008700472 -0.010102886
0.009680191 0.029950246 0.029699257 -0.028745618 -0.026865173 0.005519014 -0.010981896 0.029622478
0.030912714 -0.012358674 -0.01674917 -0.029632453 -0.013137033 -0.003386742 -0.02845406 0.0074121375
-0.020488376 -0.021678783 0.013289577 0.005388795 -0.016426021 -0.0016981933 -0.018669838 0.029517256
-0.00030331244 -0.022759823 -0.025153365 0.004603582 -0.03128594 0.025088305 -0.020508286 -0.0072600245

bias f4 [128]
00000000: 2437 d13c 1e80 4abb 3927 823d 4a24 e0bc
00000010: dd56 063e 6cf2 a63d 99ae 653d b0c9 263d
00000020: 9e08 973d 11bc 58bd 57ea 73bc a1a1 41bd
00000030: 10a9 893d 0bcb 083d c51c 093d 1392 a33d
00000040: f5ae 1b3b 7a50 e1bb cfc7 c6bc 3791 403d
00000050: 5725 9fb9 bd68 01be 67ca 5c37 09d3 123d
00000060: 2a46 edbb f21d a23c e31b de3c df90 a93c
00000070: a9e9 1ebc 6411 7abc 6b61 833d 8661 eabb
00000080: 11b0 4b3d 940f 883c ea25 953d 7a1f 62bc
00000090: c9fb 833d dbd5 e9bc 5ce2 84bd d9c9 da3d
000000a0: 2858 893d a86b 3a3d 51ee 0a3e 2a58 6bbd
000000b0: fa1d 393d cc27 9c3d 5a6a 73bc 1692 19bd
000000c0: dbd8 ea3c cf04 7c3d c742 313d f7f3 fe3c
000000d0: 8689 563d e090 d9bc c988 833b d6ef ef3c
000000e0: d177 c53d ccc7 e9bc 7875 4ebc 5488 9a3d
000000f0: 7f93 57bc 81b6 af3d c39d 1a3d 0b81 a139
00000100: 189d 53bb 3929 adbd 97f7 223d e117 723d
00000110: 7c40 943c bb43 073c e3e6 8bbd 2dc5 a03c
00000120: 0ef6 cebc 1803 5b3d 8c0d 2cbd 7f42 f93c
00000130: 7b00 68bd 6d03 773d b6e7 efbc 0ed4 0c3e
00000140: 59fd fb3c 4379 06bd 931d b3bc 0adf 7cbc
00000150: 71f2 9a3d 684e 853d 20d3 49bb d553 903d
00000160: a930 a33d 7711 87bc cae4 36bd 7fb9 103d
00000170: 50f0 86bd e128 333c 4292 93bd 0722 453d
00000180: df1d 843d 9825 ed3b 6578 9bbd a74f aa3c
00000190: 1f3f 133c 7ac0 c43d b0c7 a03d 6f33 90bd
000001a0: 0b0d 2f3d d647 603d 8e64 0e3d becb 373d
000001b0: e0bd 853c cee9 1ebd b269 7a3d 8e78 a4bd
000001c0: 0dbd f13c 3369 603d c4ad 6a3d 2eb6 0e3b
000001d0: be1d 93bd d2e1 763d 3cb9 4b3d 0b84 483b
000001e0: cb4e 22bd 172f a63c c7ca 3e3d 0cc6 cf3d
000001f0: 749c 123d 8ab7 1c3e 3f6c cdbc 3d79 a1bd
0.025538988 -0.0030899118 0.063551374 -0.027361054 0.13119073 0.08151707 0.056074712 0.040719688
0.073746905 -0.05291373 -0.014887414 -0.047273282 0.06721699 0.033396762 0.033474702 0.07986846
0.0023755406 -0.0068760486 -0.024265198 0.047013488 -0.00030354664 -0.1263761 1.3160147e-05 0.03584579
-0.00724103 0.01978967 0.027112907 0.020698963 -0.009699264 -0.015262935 0.064150654 -0.007152739
0.049728457 0.01660899 0.07282622 -0.01380145 0.064445086 -0.028544357 -0.06488487 0.10683031
0.067062676 0.045512825 0.13567473 -0.057457127 0.045194604 0.07624778 -0.014856899 -0.037492834
0.028667858 0.061528023 0.043276574 0.03112219 0.052377246 -0.02655834 0.004014109 0.029289167
0.09641994 -0.028537653 -0.012601249 0.07545534 -0.013157724 0.08579732 0.03774811 0.00030804457
-0.003228968 -0.08455128 0.0397869 0.059104804 0.018097155 0.008255894 -0.068311475 0.01962527
-0.025263812 0.053469747 -0.042005107 0.030427216 -0.056641083 0.060306 -0.029285293 0.13752767
0.030760454 -0.032830488 -0.021864688 -0.015434036 0.07565773 0.065090954 -0.0030796006 0.0704724
0.079682656 -0.01648782 -0.044651784 0.035333153 -0.06588805 0.010935039 -0.07205631 0.048128154
0.0645101 0.0072371475 -0.07591323 0.020789934 0.008987217 0.096070245 0.07850587 -0.0704106
0.042737048 0.054756008 0.034763865 0.044872038 0.016325891 -0.038797192 0.061135955 -0.080308065
0.029509092 0.054787826 0.057294622 0.0021776068 -0.07183407 0.060273953 0.0497372 0.0030596282
-0.039625924 0.020286126 0.046580102 0.10145196 0.035793737 0.1530439 -0.02507603 -0.078844525

weight f4 [10, 128]
00000000: 1670 8dbd 4ab2 c6bd 2d66 f6bd 76e0 f4bd
00000010: faaa 0e3d 146e 123d f92f 30be d93d 583d
00000020: 0f94 6fbe 62d4 453d acc1 08be d69e 3abd
00000030: 1b95 d03d 7161 2bbd b2c6 dfbd b90b 8fbd
00000040: f637 00bd aa4b f2bd 3d46 aa3e ea47 83be
00000050: 95ac 84be 73f0 2a3e fe9b 0bbe 8a49 fc3d
00000060: 3af3 b33c e3f1 b1bd 1aa8 b53d b442 2c3e
00000070: 9dd8 26be 3034 83bd 4419 16be 1cda e0bd
00000080: 7cb0 163d 2e67 b03e 06ea 94bd c855 863d
00000090: dd82 62be 8497 8b3e abb9 80be b3f3 b5bd
000000a0: e754 81be eda9 3d3e 1480 65be 29fe 033e
000000b0: 49b5 2dbe 40de aa3d 52ce db3b 3279 9c3d
000000c0: a15e 413e ba65 af3d 6586 303d 6ee7 8d3e
000000d0: 796a 623e df96 273d eb4e a2bc 46e8 41be
000000e0: a0c2 1c3d 3e64 3f3c aa38 81bc 7f35 7dbe
000000f0: 0065 84bd b447 3b3e 30cc f7bd 468b 4bba
00000100: 32d2 80bd 27e8 973e cc45 77bd cd04 443e
00000110: d857 393e fb70 0cbe 14a7 febd 2473 9bbd
00000120: 51d1 8e3d bb5f 06be 38a7 4dbd e26b 89bd
00000130: 5f1f 153e ea7b b4bd 8346 19be 1ab1 a53d
00000140: 78ad 88be 93ba 88bd 6aea 273d 593c 9dbd
00000150: 8c94 d5bd bc1f edbd 1963 95bd 9f5f 5fbe
00000160: cc6c d7bd f207 653c 2ca4 c2bd a69e 1fbe
00000170: 73dd 7bbe f6ae 4fbe 2803 513c d35d 66bd
00000180: 7513 7dbd cc04 0d3d 6e6c e43e 826b 5ebe
00000190: 73fe 8e3d 8531 4cbe 4c8d 99bc 6d62 91bd
000001a0: f5cb e53e 32c1 703b c9ba 963d bd49 38be
000001b0: 02a7 843d bc1d 9ebe 383b 753e cf7b e6bc
000001c0: b3be 9f3d 2655 c6bd 16f4 3fbe 96de cb3e
000001d0: 77a1 68be 80a3 8ebd 6e9f 00be 7a01 12be
000001e0: b302 18be be59 3f3e 7818 d0bd 5099 4ebe
000001f0: a0c7 24bd d776 363e ea4b 4a3d 4e02 1dbe
00000200: fbd9 14bb d9a8 3a3e 96b6 29be c170 e8bd
00000210: bc09 b0be 2abe 5cbe 6452 c43e 912a 34be
00000220: 5439 4f3e 3305 88be 6ac7 3cbe b327 eebd
00000230: eddb f43c 8a1a f1bd ab58 1a3e 27d9 913e
00000240: fb54 1b3d d09c 7e3d 05b4 23be c873 7abc
00000250: 153a 19bd 4142 44be 56e1 913d 6d95 7dbc
00000260: 7217 50be 2393 6fbc 6ad5 9fbc 04f9 0ebe
00000270: 764f a23d 2a61 033e d6b0 7a3c 512e 8b3c
00000280: 0383 f6bc d333 94be 602f 1d3e 2d10 62bd
00000290: 5953 fb3d 9bfe 8ebe 022b 8b3e d079 e1bd
000002a0: 240b 553e b42d 043e 7b82 b53e d6ef 4fbe
000002b0: 2e67 593b 5fd7 6abd 3542 cfbc db83 053c
000002c0: 0d53 0ebe 8785 e53d 19a1 f8bc f33b 3dbd
000002d0: 0b71 97be 502f b03d 17d9 91bd ed08 9bbd
000002e0: 017f 2ebd 21d0 bbbd 3973 8a3d 36f2 dd3d
000002f0: 442c 82bd 43c5 593d 19d6 77be 422d 0ebd
00000300: c73b 1cbd 1c87 bf3d 89fa 3abe c7ac 78bd
00000310: ff58 60be fc4a 813e a93a d9bc 0cff ff3d
00000320: e192 e73d b6c8 76bd e714 8a3c 4e5e d8bd
00000330: 7eb4 b2be 0ced d13d d420 be3d f3cd 1d3e
00000340: 2ca0 7b3e 34d8 ccbd 367d a63d 762e bdbd
00000350: cc7b 85bc 86e8 3c3d 64ac 9a3d ad65 63be
00000360: 70f7 71be 1b1a 98bb f867 503d 9a90 18bd
00000370: eaf6 80be 5d46 a53e 81a7 04be 6b3c 2abe
00000380: 1954 3b3e 8b25 31bc bd3b 3ebe d623 62bd
00000390: c445 bd3a 605f d63d 7412 6e3e c0c7 223e
000003a0: fba8 393d fe79 31bc 0f41 6cbe e3f3 193e
000003b0: 553e a13d 55d8 01be b7d3 3cbe 05c7 3fbe
000003c0: 03cf c7bd d43b 7b3e 1b44 68be 984d 95be
000003d0: 3402 603e 3f0f a1bd a82f 94bc 6e18 9dbc
000003e0: d934 6d3e 4fa3 3ebe 1efd adbd 4fb8 9d3e
000003f0: 53a9 113d 3b40 9cbe e3cb 66ba bdcf 3e3e
-0.06906144 -0.09701975 -0.12031207 -0.11956875 0.034831025 0.03574951 -0.172058 0.052793358
-0.23396324 0.048298247 -0.1335513 -0.045561634 0.101846896 -0.041840974 -0.1092657 -0.06984658
-0.03130337 -0.11830838 0.33256713 -0.25640804 -0.2591292 0.16693287 -0.13633725 0.12318714
0.021966565 -0.08688714 0.088699535 0.1682232 -0.16293569 -0.06406438 -0.14658076 -0.10979101
0.036789402 0.3445372 -0.07271199 0.0655933 -0.22120233 0.27264035 -0.25141653 -0.088843726
-0.25260088 0.18521853 -0.22412139 0.12889923 -0.16963686 0.08343172 0.006707945 0.07640304
0.18883754 0.08564325 0.04309692 0.2771563 0.22110929 0.040915366 -0.019813022 -0.18936262
0.038271546 0.011681614 -0.01577409 -0.24727438 -0.06464577 0.18289071 -0.120994925 -0.0007764589
-0.062900916 0.29669306 -0.060369298 0.19142456 0.18099916 -0.13714974 -0.124342114 -0.07590321
0.06973518 -0.13122456 -0.0502083 -0.0671003 0.14562748 -0.08812697 -0.14968304 0.0809042
-0.26694846 -0.06676211 0.04099504 -0.07677526 -0.10428724 -0.115783185 -0.07294292 -0.2181382
-0.10518798 0.013978945 -0.095039696 -0.15587863 -0.24596195 -0.20281586 0.0127571 -0.05624182
-0.061786134 0.034428403 0.44613975 -0.21720698 0.06982126 -0.19940765 -0.018744133 -0.07098851
0.4488217 0.0036736247 0.07359845 -0.17996879 0.06477167 -0.3088206 0.23948371 -0.028135208
0.07800045 -0.096842095 -0.18745455 0.39818257 -0.22717844 -0.06964779 -0.12560818 -0.14258376
-0.1484478 0.18686578 -0.10160917 -0.20175672 -0.04022944 0.17818771 0.049388804 -0.1533291
-0.0022712934 0.18228473 -0.16573557 -0.11349631 -0.34382427 -0.21556917 0.3834411 -0.17594363
0.20236713 -0.26566467 -0.18435445 -0.11628666 0.029890025 -0.1177264 0.15072887 0.28485987
0.03792284 0.062161267 -0.15986641 -0.015286393 -0.037408907 -0.19165899 0.071230575 -0.01547752
-0.20321444 -0.0146224825 -0.019510943 -0.1396218 0.07925312 0.12830034 0.01530095 0.016989859
-0.030091768 -0.2894579 0.15350103 -0.055191208 0.12271757 -0.27928624 0.2718125 -0.11009562
0.20805031 0.1290806 0.3545111 -0.20306334 0.0033173072 -0.0573343 -0.025300125 0.008149113
-0.13898869 0.11207109 -0.030350255 -0.04619975 -0.29578432 0.08602774 -0.07121485 -0.07570062
-0.04260159 -0.09170557 0.06760258 0.10837214 -0.06356099 0.05316664 -0.24202766 -0.03471113
-0.038142946 0.09351942 -0.18259634 -0.06071165 -0.2190895 0.2525252 -0.02651723 0.12499818
0.11307312 -0.060250007 0.01685567 -0.10564862 -0.3490333 0.10250291 0.09283605 0.15410595
0.2457282 -0.10002175 0.08129351 -0.09237377 -0.016294383 0.04612019 0.07552412 -0.22206755
-0.23629546 -0.004641784 0.050880402 -0.037247278 -0.2518838 0.32280245 -0.12954523 -0.1662461
0.182938 -0.010812174 -0.18577476 -0.055209957 0.0014440347 0.1046741 0.23249227 0.15896511
0.045327168 -0.010832308 -0.23071693 0.15034442 0.07873217 -0.1268018 -0.18440138 -0.18728264
-0.09756281 0.24534541 -0.2268223 -0.29160762 0.2187584 -0.07864236 -0.01808913 -0.019176688
0.23164691 -0.18616985 -0.08495544 0.3080468 0.03556187 -0.30517754 -0.0008804185 0.18633933

bias f4 [10]
00000000: a031 35be 19c0 443e ed0a 98bc b0c9 05be
00000010: f0ba 993d 8e2f ad3e 1d98 04bd de99 9b3d
00000020: 02be c4be 69c2 de3c
-0.17694712 0.19213904 -0.018559897 -0.13065219 0.075063586 0.33825344 -0.03237163 0.07597707
-0.38426214 0.027192311
