models/2.pth (torch, 409760 bytes, 4 tensors)

weight f4 [128, 784]
0	0x3cffdc75	0.031233052
1	0x3d032c57	0.032024708
2	0xbcbe054e	-0.023195889
3	0x3c1e3c2a	0.009657899
4	0x3c447db7	0.011992863
5	0xbb852c8a	-0.0040641474
6	0x3c26a620	0.010171443
7	0xbc9039aa	-0.017605621
8	0x3c190d4e	0.009341551
9	0xbcd5f0b3	-0.02611575
10	0x3c07d80e	0.008291258
11	0xbcef1f35	-0.029189685
12	0x3c9c24dc	0.019060545
13	0xbcc1ce8a	-0.023658056
14	0xbb306018	-0.0026912745
15	0xbccd3b47	-0.02505268
16	0x3c640618	0.0139174685
17	0xbcd6ecc5	-0.026235947
18	0xbc2e71ae	-0.010647221
19	0x3c60cda5	0.0137209045
20	0xbc634edc	-0.013873782
21	0xbbb3ade5	-0.0054833763
22	0x3c69040a	0.014222154
23	0xbced04d8	-0.028932974
24	0xbca1127c	-0.019662134
25	0xbc9e654c	-0.019335411
26	0xbd016ee2	-0.031599887
27	0x3c25feaa	0.010131517
28	0xbcd681ae	-0.026184883
29	0x3cf4deae	0.029891338
30	0xbb88a313	-0.0041698306
31	0x3d0b2e88	0.033979923
32	0xbca46127	-0.020065857
33	0xbccb0ef6	-0.024787407
34	0xbcc62642	-0.024188165
35	0xbc0bd513	-0.008534688
36	0x3c537d7c	0.012908336
37	0x3c898c35	0.016790489
38	0x3cc8e161	0.024521532
39	0xbc9202aa	-0.017823536
40	0xbccd81ab	-0.025086245
41	0xbd0e484b	-0.034736913
42	0xbd0fe644	-0.035131708
43	0x3c9613c5	0.018319974
44	0xbcf12c20	-0.029439986
45	0xbd03ab0f	-0.032145556
46	0x3ceaa265	0.028641889
47	0x3c4d7ebc	0.012542423
48	0xbcb8ea9a	-0.022572804
49	0x3b7c043c	0.0038454672
50	0xbc915b59	-0.017743753
51	0x3c3e6bb2	0.011622356
52	0x3d04f078	0.03245589
53	0xbc53d7d3	-0.0129298745
54	0xbc0d9080	-0.0086404085
55	0x3c13f565	0.009030675
56	0x3c268ea5	0.010165845
57	0xbcbfaa75	-0.02339671
58	0xbbd34cc9	-0.0064483625
59	0xbc5c30ab	-0.013439338
60	0xbced33ee	-0.028955426
61	0x3c94595d	0.018109018
62	0xbcf687a9	-0.030093985
63	0xbbdca618	-0.006733667
64	0xbd0829cf	-0.033242997
65	0xbc31fc63	-0.010863396
66	0x3d051607	0.03249171
67	0xbbdd0868	-0.006745387
68	0x3d2145ab	0.03937308
69	0x3d08f2a2	0.033434518
70	0x3d1fe5e1	0.03903759
71	0xbb52332c	-0.0032073958
72	0x3c656c62	0.014002891
73	0x3c18e714	0.009332437
74	0x3d0eece6	0.034893893
75	0xbcc1f9ad	-0.023678625
76	0xbc952666	-0.018206786
77	0x3d127286	0.03575375
78	0xbd0463fd	-0.03232192
79	0xbd026502	-0.03183461
80	0x3c42f350	0.0118988305
81	0xbcb41157	-0.021980925
82	0xbc976e70	-0.018485278
83	0xbcb23d55	-0.021757761
84	0xbd08ddd2	-0.03341467
85	0x3d119f1b	0.035552125
86	0xbcfd2fb0	-0.030906528
87	0xbcf42f43	-0.029807692
88	0x3a8cc0c0	0.0010738596
89	0x3d08c5a8	0.033391625
90	0x3c937432	0.017999742
91	0x3bd3223c	0.00644329
92	0xbcaa3dbd	-0.020781392
93	0x3c89af6e	0.016807284
94	0x390ca11f	0.00013411463
95	0xbc38a08e	-0.011268748
96	0x3c6a0ccb	0.014285277
97	0xbc54a786	-0.012979394
98	0x3c157b78	0.0091236755
99	0xbcdc3d12	-0.02688459
100	0x3c6f3ba0	0.014601618
101	0xbcbcf68d	-0.023066783
102	0x3b388515	0.0028155495
103	0xbbc1dc58	-0.0059161596
104	0xbcbf7237	-0.023369892
105	0x3cb9a3ab	0.02266105
106	0xbb7ca91b	-0.0038552943
107	0xbd0dcf3e	-0.03462147
108	0x3ce403af	0.027833788
109	0x3c708074	0.014679063
110	0x3c986723	0.018603867
111	0xbc1e7eb3	-0.009673762
112	0x3cf3086e	0.029667106
113	0x3d02e904	0.031960502
114	0xbc56517a	-0.013080949
115	0x3b160840	0.00228931
116	0xbc33334b	-0.010937522
117	0x3cccd8ed	0.025005782
118	0xbc9340b9	-0.017975198
119	0xbd23ba52	-0.03997261
120	0x3c918e67	0.017768098
121	0xbd0df271	-0.03465504
122	0x3c63325e	0.013866989
123	0xbd1e6c09	-0.03867725
124	0xbce446ea	-0.027865846
125	0xbc0b9978	-0.0085204765
126	0x3ca8e3b9	0.0206164
127	0x3b7e9693	0.0038847073
128	0xbb8a8633	-0.0042274236
129	0x3c65fea4	0.014037762
130	0xbc78bf47	-0.015182323
131	0x3ca0b0d1	0.019615563
132	0xbbbdaa25	-0.005788105
133	0xbcd1afb9	-0.025596486
134	0xbcc6c330	-0.024262995
135	0x3c8972d0	0.01677838
136	0x3d005d97	0.031339254
137	0xbc954b6a	-0.018224437
138	0x3d0a0ac3	0.03370167
139	0x3cef25a5	0.029192755
140	0xbcce01bc	-0.025147311
141	0xbcf970fa	-0.03044938
142	0xbcfe4589	-0.031039016
143	0x3cfeddb5	0.031111578
144	0xbc83dbb7	-0.01609598
145	0x3c157598	0.009122275
146	0x3b224a61	0.0024763572
147	0xbc50f649	-0.012754031
148	0xbc1c203a	-0.009529168
149	0xbd2c6f49	-0.042098317
150	0x3cb1cc35	0.021703819
151	0xbd015306	-0.031573318
152	0x3bf00ff7	0.007326122
153	0x3c41fc28	0.011839904
154	0x3cb3cd9e	0.021948632
155	0xbc8be5de	-0.017077383
156	0x3cc4bb94	0.024015225
157	0xbbd4e259	-0.0064967093
158	0x3d0093ff	0.03139114
159	0xbc55e204	-0.013054375
160	0xbb6f1db0	-0.00364862
161	0x3d08ca6d	0.033396173
162	0xbca4a696	-0.020098966
163	0xbd072534	-0.032994464
164	0xbbbed0e9	-0.005823244
165	0xbc43026e	-0.011902435
166	0xbccb5700	-0.024821758
167	0x3cdd0bd3	0.026983177
168	0x3c30fd9c	0.010802653
169	0x3cd18896	0.025577825
170	0xbced4046	-0.028961312
171	0xbc82da13	-0.015973127
172	0xbac40d88	-0.0014957646
173	0x3c614b7d	0.013750908
174	0xbd22fdfb	-0.039792996
175	0xbd5b9daa	-0.053617157
176	0xbca80e1d	-0.020514542
177	0xbd0f6637	-0.03500959
178	0xbd2b4b91	-0.041820113
179	0x3b4adc94	0.0030954229
180	0x3d72ca93	0.05927522
181	0x3c1a1292	0.009403842
182	0x3d65cc8f	0.056103285
183	0x3d635b15	0.055506784
184	0x3c935a7e	0.017987486
185	0x3c8cab99	0.017171668
186	0x3d3d3515	0.0461932
187	0xbabc883c	-0.0014383863
188	0x3d1a7a9d	0.03771459
189	0xbcde9f62	-0.027175609
190	0x3c48c371	0.012253628
191	0xbc2abc52	-0.010420876
192	0xbcf18b14	-0.029485263
193	0xbcb584ee	-0.022158112
194	0x3c48bb0a	0.012251625
195	0x3c5b215f	0.0133746555
196	0x3b32c6dc	0.0027279174
197	0xbd0214df	-0.031758185
198	0xbcd07450	-0.025446087
199	0xbcddee89	-0.027091281
200	0x3c5caf82	0.013469579
201	0xbcad788d	-0.021175647
202	0xbd470a21	-0.048593644
203	0xbbc89351	-0.006121077
204	0xbd79e2de	-0.061007373
205	0x3c2f4198	0.010696791
206	0xbcdfc0d1	-0.027313622
207	0xbbd26cfb	-0.006421683
208	0x3d62fdcd	0.055417825
209	0x3d790deb	0.06080429
210	0x3d31727f	0.043322083
211	0x3de1e2a4	0.110295564
212	0x3d731e8c	0.059355304
213	0x3d8a3c89	0.067498274
214	0xbabf561e	-0.0014597808
215	0xbc8d46a6	-0.017245602
216	0xbb9675c8	-0.0045916773
217	0xbcd1c001	-0.02560425
218	0xb972f6ed	-0.00023170905
219	0xbd06c68b	-0.03290419
220	0xbcead19b	-0.0286644
221	0xbcb2b5d7	-0.021815224
222	0xbd091103	-0.03346349
223	0x3b2f2ca1	0.0026729482
224	0x3c31fc19	0.010863327
225	0xbd023cd7	-0.031796303
226	0x3bcafa38	0.006194379
227	0xbca576ec	-0.020198308
228	0xbc81f4b5	-0.015863756
229	0xbd2e0a77	-0.04249045
230	0xbd2e5ef2	-0.042571016
231	0xbd3cb5ad	-0.046071697
232	0xbd2ed833	-0.042686652
233	0x3cad4ce3	0.021154827
234	0x3ce34da6	0.027746987
235	0x3d806fe6	0.06271343
236	0x3d386a8f	0.045023497
237	0x3cb32021	0.021865906
238	0x3d9be49f	0.076119654
239	0x3d6327a3	0.055457722
240	0x3cb9e49a	0.022692014
241	0x3c308d11	0.01077582
242	0x3c986277	0.01860164
243	0xbc1a4120	-0.009414941
244	0xbd116c8c	-0.03550391
245	0xbd2c5042	-0.042068727
246	0xbbe0462a	-0.0068443017
247	0xbae5903d	-0.00175143
248	0x3bab4b3a	0.0052274736
249	0x3c16e313	0.009209412
250	0x3c33e728	0.010980405
251	0x3c1aa583	0.009438875
252	0x3c6a3620	0.014295131
253	0xbc4f8a65	-0.012667273
254	0x3c350a7f	0.011049866
255	0x3c8334e8	0.016016439

bias f4 [128]
0	0xbd38908f	-0.045059737
1	0xbd389703	-0.04506589
2	0x3e00c7f5	0.12576278
3	0xbd77a317	-0.06045827
4	0x3b832fb4	0.0040034894
5	0x3c84bd3c	0.016203515
6	0xbc9794df	-0.018503604
7	0xbcea6fca	-0.028617758
8	0x3c86dec8	0.016463652
9	0x3b80dd78	0.003932651
10	0x3d921439	0.071327634
11	0xbc7a4334	-0.015274812
12	0x3da49335	0.0803589
13	0x3d92dee1	0.07171417
14	0x3d4b0faa	0.049575485
15	0x3cdfeb94	0.027334012
16	0x3d05ef02	0.03269864
17	0xbd9c9afc	-0.076467484
18	0x3d2424de	0.04007422
19	0xbdb5b984	-0.08873275
20	0x3d3dd04f	0.046341237
21	0xbc970448	-0.018434659
22	0xbc07bdb2	-0.008284973
23	0xbca473f5	-0.020074824
24	0x3c652d7e	0.013987897
25	0xbd17556f	-0.03694671
26	0xba6c5796	-0.0009015737
27	0x3da0c41e	0.078499064
28	0x3c948c83	0.018133407
29	0x3d1f3bbd	0.03887533
30	0x3d33f16f	0.04393142
31	0x3db8288f	0.08992111
32	0x3c3bffec	0.011474591
33	0x3b6bc760	0.003597699
34	0x3dd4dc40	0.10393572
35	0xbc59f6fd	-0.0133035155
36	0x3da92d93	0.08260646
37	0xbcf6174b	-0.030040404
38	0x3bc9268a	0.0061386274
39	0xbd56bec4	-0.052428022
40	0x3d12d3db	0.035846572
41	0x3dc2ad03	0.095056556
42	0xbdbb2e23	-0.09139659
43	0xbcb3e005	-0.021957407
44	0xbda02106	-0.07818799
45	0x3da30b9b	0.07961198
46	0xbd2001fc	-0.039064392
47	0x3cb2c5ed	0.021822894
48	0x3d1ff996	0.039056383
49	0x3dc42f3c	0.09579322
50	0xbc9a3f37	-0.018828971
51	0x3cdc2e22	0.026877467
52	0xbcc962ed	-0.024583304
53	0x3dd39bd4	0.10332456
54	0x3d7e7bfa	0.062129952
55	0x3c974fe2	0.018470708
56	0x3dca4fa9	0.09878475
57	0xbb2947d9	-0.0025830178
58	0x3d05ec74	0.032696202
59	0xbbcf335c	-0.006323261
60	0xbcadd346	-0.021218907
61	0xbdfb00c8	-0.122560084
62	0x3c88dd68	0.016707137
63	0xbaba8df1	-0.0014232976
64	0x3c46e4ce	0.012139512
65	0xbcb6696f	-0.022267072
66	0x3cdd9c5f	0.027052103
67	0xbcf3a84c	-0.029743336
68	0x3c333f9a	0.010940457
69	0x3da3a9a0	0.07991338
70	0xbcd9a76c	-0.02656909
71	0xbc2b7058	-0.010463797
72	0x3db7c625	0.0897334
73	0xbc92317e	-0.017845865
74	0x3d82516b	0.063631855
75	0x3a7db895	0.0009678689
76	0x3d7917be	0.060813658
77	0xbdb07955	-0.08616892
78	0x3d064fb3	0.03279085
79	0x3b604126	0.003421852
80	0xbd094360	-0.03351152
81	0x3d168eca	0.036757268
82	0x3db03651	0.0860411
83	0x3dcee739	0.10102696
84	0xbd19c424	-0.03754057
85	0x3d542c4d	0.05180006
86	0xbb9d0824	-0.00479223
87	0x3d2c17ae	0.04201477
88	0xbc9d9bcc	-0.019239329
89	0x3d8e94f1	0.06962002
90	0x3d9ff2db	0.07809993
91	0xbd4cf986	-0.05004265
92	0xbb9844c2	-0.0046468684
93	0xbd6eaaaa	-0.058268227
94	0xbd524229	-0.051332626
95	0x3b7cb2e3	0.0038558773
96	0x3d2946c9	0.04132727
97	0x3df4c20a	0.119510725
98	0x3d35bef2	0.044371553
99	0xbd025ef8	-0.03182885
100	0x3cdcf154	0.026970543
101	0x3ca51bd4	0.020154871
102	0x3bdfdca3	0.006831722
103	0xbc89f149	-0.016838687
104	0xbc082443	-0.008309427
105	0x3e0066d3	0.12539224
106	0x3c03ec76	0.008051982
107	0xbc2200e2	-0.009887906
108	0x3d8c41ec	0.06848511
109	0x3d2daa28	0.0423986
110	0x3bf24c22	0.0073943296
111	0x3cde3131	0.027123066
112	0xbc8f6237	-0.017502887
113	0x3d96506a	0.073395565
114	0x3cc5fe9a	0.024169255
115	0xbd000530	-0.031254947
116	0x3e2294c2	0.15877059
117	0x3ca77159	0.02043979
118	0x3d0cd7c3	0.034385454
119	0x3d6469be	0.055764906
120	0x3d036d39	0.032086585
121	0xbd2169c7	-0.039407518
122	0x3d00f20d	0.031480838
123	0x3d6cba6a	0.057794966
124	0xbd5a909f	-0.053360578
125	0xbb7ebd2b	-0.0038870077
126	0x3bbe7a8c	0.0058129486
127	0x3cefc525	0.02926881

weight f4 [10, 128]
0	0x3e19d42d	0.15022345
1	0x3bfae4ee	0.007656685
2	0xbd448263	-0.04797591
3	0xbe89559d	-0.2682313
4	0xbe099d6f	-0.13438962
5	0xbdce6196	-0.10077207
6	0xbe26e628	-0.16298735
7	0x3e2603e7	0.16212426
8	0xbdc1821c	-0.094486445
9	0x3e9f5f03	0.31127176
10	0x3e461e1a	0.1934742
11	0xbd97b598	-0.07407683
12	0xbeb3d7a3	-0.35125455
13	0x3d853b1b	0.06505414
14	0xbe1a5de7	-0.15074883
15	0xbce646cd	-0.028109932
16	0xbd4292d0	-0.047503293
17	0xbdb4ea53	-0.08833756
18	0xbd2b1db3	-0.04177637
19	0x3cd9da76	0.026593428
20	0xbe2038b3	-0.15646629
21	0x3eae240c	0.34011877
22	0x3e37d299	0.1795143
23	0x3eb420be	0.3518123
24	0xbd8ced23	-0.06881168
25	0xbcf0125b	-0.029305628
26	0xbd134d23	-0.035962235
27	0xbcf37457	-0.029718561
28	0xbe82053c	-0.2539462
29	0xbd982b78	-0.07430166
30	0xbd38539a	-0.045001604
31	0x3e7ff032	0.24993971
32	0x3e33735a	0.17524472
33	0xbdba517b	-0.090975724
34	0xbe34f725	-0.17672403
35	0x3d5c08d0	0.05371934
36	0xbccb4b95	-0.024816314
37	0xbc0674fe	-0.008206604
38	0x3c0d7540	0.008633912
39	0x3dc992b1	0.09842432
40	0xbbfe9550	-0.0077692643
41	0x3e32c9e3	0.17459826
42	0x3e845d15	0.25852266
43	0x3d119fcf	0.035552796
44	0x3e72e578	0.23720348
45	0x3df8d460	0.12149882
46	0xbdf88e21	-0.12136484
47	0x3e9a815d	0.3017682
48	0xbe063940	-0.13107777
49	0xbe530b40	-0.2060976
50	0x3dafa5f0	0.08576572
51	0x3e45802b	0.19287173
52	0x3e6b1051	0.22955443
53	0xbe3f58b5	-0.18686183
54	0xbd2afddb	-0.041746
55	0xbe25bc5c	-0.16185135
56	0xbcb86b70	-0.022512168
57	0xbe1e7b72	-0.15476778
58	0xbe008a11	-0.12552668
59	0xbe40a3d9	-0.18812503
60	0x3e90a250	0.28248835
61	0xb9f05b5c	-0.00045844435
62	0xbe4fbe14	-0.20287353
63	0x3d9148d3	0.07093968
64	0xbdd03ce3	-0.10167863
65	0xbe118785	-0.14211853
66	0x3d38a50c	0.045079276
67	0x3d494f7f	0.04914808
68	0x3db98bde	0.09059881
69	0x3e140575	0.14455207
70	0xbda287aa	-0.07936032
71	0xbb32d046	-0.0027284785
72	0xbebb264a	-0.3655265
73	0x3db3c05c	0.08776924
74	0xbcd60c98	-0.026129052
75	0x3e46cea0	0.19414759
76	0xbe45970e	-0.19295904
77	0x3b0e45cc	0.0021709083
78	0xbe3c8910	-0.1841166
79	0xbc872c28	-0.016500548
80	0xbe765ec1	-0.24059583
81	0x3de69ee6	0.11260776
82	0xbdbae5e9	-0.09125883
83	0xbe214af3	-0.15751247
84	0x3d76db42	0.060267694
85	0xbd25ab53	-0.04044659
86	0xbe2d95f0	-0.16951728
87	0xbe00ce22	-0.12578633
88	0x3def8544	0.1169534
89	0x3e183fee	0.14868137
90	0x3bcbb047	0.0062160823
91	0x3e88f8d5	0.26752344
92	0xbe7c1ca0	-0.24620295
93	0xbcc6681e	-0.024219569
94	0x3da97543	0.08274319
95	0xbd997a43	-0.07494023
96	0xbde9062d	-0.11378131
97	0xbe93c9ad	-0.28864804
98	0xbe092073	-0.13391285
99	0xbe356d82	-0.17717555
100	0x3df9c671	0.12196053
101	0xbb625513	-0.0034535571
102	0x3d4486b5	0.04798003
103	0x3e206a05	0.15665443
104	0x3e7c22c2	0.24622634
105	0x3ed39723	0.41326246
106	0xbdb3ac01	-0.087730415
107	0xbde57cdd	-0.112054564
108	0xbd8a3bfa	-0.06749721
109	0xbd01a430	-0.031650722
110	0x3c91a7f7	0.017780287
111	0xbe3b5c9b	-0.18297045
112	0xbc86ac86	-0.016439687
113	0xbdf3e80f	-0.11909496
114	0x3da8d71d	0.082441546
115	0xbe3b5b1c	-0.18296474
116	0xbc593e69	-0.013259509
117	0xbdbe00b9	-0.092774816
118	0x3e2e9e0d	0.17052479
119	0xbd8e4fe4	-0.06948832
120	0xbe3d233b	-0.1847047
121	0xbe5d77cf	-0.21627735
122	0x3d0a62b4	0.033785537
123	0x3d2e0f8a	0.042495288
124	0xbe3dead5	-0.18546613
125	0xbdaa53dd	-0.08316777
126	0x3e1f5d7b	0.15563004
127	0x3dfcd77c	0.12345788
128	0xbd8de49d	-0.0692837
129	0xbc44bbe1	-0.012007684
130	0x3e43be03	0.19115452
131	0xbca2c4df	-0.019869266
132	0x3e60995a	0.21933499
133	0xbdbcfb3a	-0.09227605
134	0x3e35475d	0.17703004
135	0xbebb1ac0	-0.36543846
136	0xbd8e890d	-0.06959734
137	0xbead58c7	-0.33856794
138	0xbe4cddba	-0.20006457
139	0x3cfb1efb	0.030654421
140	0x3e986085	0.2976114
141	0xbdf6a7a0	-0.12043691
142	0x3ec7a4ed	0.38993016
143	0xbdba4345	-0.09094862
144	0xbccdc344	-0.025117524
145	0xbe023c19	-0.12718238
146	0xbe0e61a3	-0.13904433
147	0xbd34b68f	-0.044119414
148	0xbe09a7df	-0.13442944
149	0xbe8cf688	-0.27531838
150	0xbd92b049	-0.0716253
151	0xbe750b1b	-0.23930018
152	0x3e19e9bc	0.15030569
153	0xbd1d2ab7	-0.038370814
154	0x3e37d4d7	0.17952286
155	0x3d4f1bc9	0.050563607
156	0x3d88d343	0.0668092
157	0x3a9ac23b	0.0011807153
158	0x3e139257	0.14411293
159	0xbe3ac082	-0.18237498
160	0xbd890858	-0.066910446
161	0x3ddf9f82	0.109190956
162	0xbd4d56c7	-0.050131585
163	0x3e074267	0.13208924
164	0x3e7ab336	0.24482426
165	0xbd054ba4	-0.03254284
166	0x3db0f295	0.08640019
167	0xbd4082bf	-0.04699969
168	0x3d2ac13f	0.0416882
169	0x3daa49bd	0.08314846
170	0xbe348b3c	-0.17631239
171	0xbbcc9c29	-0.0062442017
172	0xbe12f61d	-0.14351697
173	0x3e4f2b80	0.20231438
174	0x3e6260a8	0.22107184
175	0xbd1b3d22	-0.037900098
176	0x3e8f3f1a	0.2797783
177	0xbe0bc54f	-0.13649486
178	0xbd5a998d	-0.053369094
179	0x3e5323b1	0.20619084
180	0xbd98cb0c	-0.07460603
181	0xbbf7103b	-0.0075397766
182	0xbde263f0	-0.11054218
183	0xbe64acdb	-0.22331564
184	0xbe5b82d1	-0.21436621
185	0x3d829dcc	0.063777536
186	0x3b3cbdd7	0.0028799677
187	0x3e6d8b55	0.23197682
188	0xbd2c539e	-0.04207193
189	0xbe20c2a8	-0.15699255
190	0xbd385684	-0.045004383
191	0xbe1657da	-0.1468195
192	0xbe4e2fea	-0.20135465
193	0xbe600b48	-0.21879303
194	0x3dbbd16e	0.09170805
195	0x3d27076b	0.04077856
196	0xbdfe8d67	-0.12429314
197	0xbe10ff62	-0.14159921
198	0xbe1bdd72	-0.15221193
199	0xbe151c29	-0.14561523
200	0x3e964c13	0.29354915
201	0xbd95d955	-0.073168434
202	0x3e02e619	0.12783088
203	0xbe657ddc	-0.22411293
204	0x3e10b056	0.14129767
205	0xbdbf50e9	-0.09341604
206	0x3e59e556	0.21278891
207	0xbe5e3a74	-0.21701986
208	0x3db5b38d	0.08872137
209	0x3e5fa350	0.21839643
210	0x3eaeeae5	0.34163585
211	0xbe31bea3	-0.17357878
212	0xbe74c603	-0.2390366
213	0x3d1d0fb6	0.03834506
214	0x3e83a9c0	0.25715446
215	0xbd196574	-0.03745027
216	0xbe893813	-0.26800594
217	0x3dc1a8e0	0.094560385
218	0xbe0b045c	-0.13575882
219	0xbe50b10e	-0.20380041
220	0x3e20a222	0.15686849
221	0xbe458d24	-0.19292122
222	0xbd8181b3	-0.06323566
223	0xbdc20d56	-0.094752
224	0xbdb0fe77	-0.08642285
225	0x3cc251e7	0.023720695
226	0xbdf1c191	-0.11804498
227	0xbdfb559e	-0.122721896
228	0xbe325552	-0.1741536
229	0x3d0fbfad	0.035094906
230	0xbd2ecabd	-0.042673815
231	0xbdbd5576	-0.09244816
232	0xbe3dc247	-0.18531142
233	0xbe9b6364	-0.30349267
234	0x3c94f9e8	0.01818557
235	0xbe42f091	-0.19037081
236	0xbbfb2e6b	-0.0076654456
237	0xbe6d9699	-0.2320198
238	0xbc05ca1d	-0.008165863
239	0x3be5bc62	0.0070109824
240	0xbda56340	-0.08075571
241	0xbe42fcdf	-0.19041775
242	0xbe696d87	-0.22795688
243	0x3d11af60	0.03556764
244	0x3e100c0f	0.140671
245	0x3d8d749a	0.069070056
246	0xbd5174c0	-0.051136732
247	0x3dedaa8d	0.116047956
248	0x3bd6b72b	0.006552597
249	0x3eb4e9cf	0.35334632
250	0x3db5b882	0.08873083
251	0x3e57b5d5	0.21065457
252	0x3e7e0d32	0.24809721
253	0x3e778066	0.24170074
254	0x3e0b8e3c	0.13628477
255	0x3c87be1a	0.01657014

bias f4 [10]
0	0xbc8fff80	-0.017577887
1	0x3e65c8ec	0.22439927
2	0xbc9c7025	-0.019096443
3	0xbd85984d	-0.0652319
4	0x3d9f8c1e	0.07790397
5	0x3ebaa670	0.36455107
6	0xbd294c21	-0.041332368
7	0x3def23de	0.11676763
8	0xbea85821	-0.32879737
9	0x3cd53d04	0.026030071
