models/4.pth (torch, 409760 bytes, 4 tensors)

weight f4 [128, 784]
000000 0a 38 7e 3c aa ff 45 bc 6e 8f 92 bb 35 3c b7 3c
       0.01551629 -0.012084881 -0.0044726646 0.022367576
000010 05 5a 0a 3d e5 27 c9 3c f7 8f c3 bc 05 b9 5c bc
       0.033777256 0.024555156 -0.023872359 -0.0134718465
000020 6e cc 07 bb 81 9f 41 bc 11 0f ff 3c 25 9b 96 bc
       -0.0020721215 -0.011817814 0.031135114 -0.018384526
000030 c4 69 c6 bc d5 08 c4 bc b0 cc 9b bb f0 1b 5d ba
       -0.024220355 -0.023929993 -0.0047546253 -0.0008434644
000040 97 cc b5 bc 57 07 3b 3c a1 fb c2 bc 05 ac 10 3d
       -0.022192283 0.011415324 -0.023801627 0.0353203
000050 e2 6a 06 bd e5 0f bc bc a5 8d 2c bc 45 b0 fa bc
       -0.032816775 -0.022956798 -0.010531818 -0.03060163
000060 8a f1 0c 3d 93 ad 68 bc 25 37 65 3b d8 e7 e2 bc
       0.034410037 -0.01420154 0.0034975496 -0.027698442
000070 5c 91 cd 3b ca c5 ca 3b dc 43 64 3b 65 81 f7 bc
       0.0062734317 0.006188129 0.0034830486 -0.030213067
000080 f8 73 71 3b df 88 80 3c 3b ee 90 bc 4d f6 ee bb
       0.0036842804 0.015690265 -0.017691722 -0.007292545
000090 f8 b8 fa bc ad 2b 5c 3b 57 ef 3f bc fe 6e 81 3c
       -0.030605778 0.0033595369 -0.011714778 0.015799996
0000a0 02 cc 66 bb 67 2a db bc b8 a9 01 3d 0a 8c 53 3c
       -0.0035216813 -0.026753617 0.031655997 0.012911806
0000b0 1e 10 d4 3b f6 c4 8f 3c ff e8 08 3d 5f dd 78 bc
       0.006471648 0.017549973 0.033425327 -0.015189498
0000c0 5c 2e e9 bc 90 3f 65 ba 32 dc 42 3c 3b 34 87 bc
       -0.028464489 -0.0008745128 0.011893319 -0.016504398
0000d0 53 24 ac bc e5 32 9f bc 13 ee 81 3b 58 6e f5 bc
       -0.021013414 -0.019433448 0.0039651482 -0.029959843
0000e0 21 5b 75 bc bc ce 80 bc e7 68 e6 bc 63 09 ad bc
       -0.01497534 -0.015723579 -0.028126193 -0.02112264
0000f0 10 01 06 bd ac 4b 06 3d a0 b6 c3 3c 8d c7 cd bc
       -0.032715857 0.03278701 0.023890793 -0.025119567
000100 47 3b ca bc 57 73 d2 3c f2 59 bb 3c f7 36 b6 3c
       -0.024686469 0.025689764 0.022870038 0.022243006
000110 05 e6 c5 3c de fa ac 3c 82 ae 88 3c 9e de e5 bc
       0.024157533 0.021115717 0.016684774 -0.028060254
000120 1c da cf bc 9a 5e e5 3c 29 7c 16 3b 13 10 f8 bc
       -0.025372557 0.027999211 0.0022962189 -0.030281102
000130 f0 9d e6 3a b2 eb e7 3c 6c a8 23 3c ec d7 01 3d
       0.0017594676 0.02831063 0.009988885 0.03170006
000140 dc ec d3 bc e2 b4 08 3d ea 13 74 bc 6d c0 0b bd
       -0.02586978 0.03337563 -0.014897326 -0.03411906
000150 6a c3 25 bc 2c 85 fc 3c 96 58 ce ba 9b 3e 20 3c
       -0.010117391 0.03082522 -0.0015742953 0.009780551
000160 d2 60 bb bc 6e 13 04 bd f4 c8 93 bc 14 e7 59 3c
       -0.022873316 -0.032245092 -0.018040158 0.013299722
000170 ba 4c 81 bc 00 90 80 3c 41 51 ca bc ad 2f 24 bc
       -0.015783656 0.015693665 -0.024696948 -0.010021132
000180 43 d1 11 3d 23 76 3f bc 55 61 87 bb b9 9f 0b 3c
       0.03559996 -0.011685881 -0.004131476 0.008521968
000190 0c 1c 34 bb f1 33 00 bd ad 94 a7 3c 4a f1 c3 bc
       -0.0027482538 -0.031299535 0.020456636 -0.023918767
0001a0 f5 de 8c bc 2e 97 8a bc aa 3a 39 3c 95 c6 a5 ba
       -0.017196158 -0.016917791 0.0113054905 -0.0012647683
0001b0 20 6f 98 bb 4d 01 d7 bc e8 3c dd bc 25 2a c9 3c
       -0.004651919 -0.026245737 -0.027006581 0.024556229
0001c0 73 cd f1 bc 28 32 0c 3d 09 26 bf 3b 25 ba c6 bc
       -0.029516911 0.03422752 0.0058333916 -0.024258683
0001d0 86 1a a5 bb 09 26 01 bd c9 bf b6 3c ea 3c 93 3a
       -0.005038562 -0.031530414 0.022308247 0.0011233364
0001e0 47 d3 94 bc 4f f3 0c 3c 30 e9 3d bc 9b bf 58 bc
       -0.018167151 0.008602931 -0.011591241 -0.013229276
0001f0 40 b6 1d 3d a4 d7 f2 3c 4f d2 de ba 9d 94 dc 3c
       0.038503885 0.029643841 -0.0016999933 0.026926333
000200 9e 92 b4 3b 84 f7 bc 3c fe 12 16 bd b9 50 04 bc
       0.005510642 0.023067243 -0.036639206 -0.008075886
000210 9c fd a5 bc cf 38 0b 3c 9d 52 dd 3c b5 c9 9c bc
       -0.020262532 0.008497431 0.027016932 -0.01913915
000220 db 7b 6f 3c c5 cb c6 3c ed 9b cb bc 32 4a e9 3c
       0.014616932 0.024267087 -0.024854625 0.028477762
000230 4e 17 0d 3d d8 c5 04 3d ae 26 bf bc 14 54 70 3c
       0.034446053 0.03241524 -0.023333874 0.014668483
000240 2b 49 1d bd 41 a9 06 bd 0c 6c 9a 3c ea 9e 7f 3a
       -0.038399857 -0.032876257 0.018850349 0.0009751158
000250 01 5d 0e bd 67 6a 29 bd 33 06 6d bc 69 5d dd bc
       -0.034756664 -0.04136124 -0.01446681 -0.02702208
000260 59 b9 2b bc 89 09 3f bc 60 86 4f bd 58 ef 1e bd
       -0.010481202 -0.011659988 -0.05066526 -0.038802475
000270 eb 11 24 3c f5 c2 40 bd d6 04 9b bc 6e 54 9f bd
       0.010014038 -0.047060926 -0.018923204 -0.077797756
000280 c2 ee 90 bd e8 86 1a bd 8e af 1d bd 8d 6c 8b bc
       -0.070767894 -0.037726313 -0.0384975 -0.017019534
000290 a2 99 86 bb 29 b4 8f bc 2a ee a3 3c 2a 83 03 3c
       -0.00410767 -0.017541962 0.020011026 0.008026877
0002a0 5c 40 2d bc 22 80 1b bb 4d 38 c5 bc a1 2e 60 3c
       -0.0105744265 -0.0023727496 -0.024074698 0.013682992
0002b0 d4 95 09 ba b2 16 b0 3a 28 b4 89 3c 0f 89 95 bc
       -0.00052484614 0.0013434498 0.016809538 -0.018253831
0002c0 f0 f7 33 bd 63 fc 85 bd cc 77 9c bd 07 40 61 bd
       -0.043937624 -0.065422796 -0.07640037 -0.0549927
0002d0 37 d8 43 bd ec 49 a2 bd 47 e9 17 bd e5 c2 82 bd
       -0.04781362 -0.07924256 -0.037087705 -0.063848294
0002e0 3d e9 68 bd e6 27 90 bd 03 29 94 bd fe d7 99 bd
       -0.05686306 -0.0703886 -0.07234385 -0.075119
0002f0 cd a2 9d bd 26 f5 6c bd d2 15 2a bd 67 2b e2 3c
       -0.076970674 -0.05785098 -0.041524716 0.027608586
000300 5e bd 47 bc 9e 16 63 bb c0 dd 00 3c 19 f0 b6 3c
       -0.012191145 -0.0034650932 0.007865369 0.022331284
000310 32 60 cb 3c 3f 50 5a 3b 7d 8f da 3c ac 64 1f 3b
       0.024826143 0.003331199 0.026679749 0.002432148
000320 92 57 2a 3c 39 18 52 bb 1d b4 91 39 00 bf 3f 3c
       0.010396855 -0.0032057895 0.0002779075 0.011703253
000330 52 e2 2f 3b a7 a1 84 bd 73 a3 36 bd 38 58 6b bd
       0.0026837778 -0.06476145 -0.04458947 -0.05745718
000340 10 48 aa bd 47 5d 20 be ef e3 06 be 1e e0 ea bd
       -0.08314526 -0.15660582 -0.13172887 -0.11468528
000350 39 53 c9 bd 52 12 0e be 36 79 87 bd 87 76 0f be
       -0.098303266 -0.13874176 -0.06614916 -0.14010058
000360 49 30 75 bd 85 fc 6c bd 98 31 50 bd 14 73 29 bb
       -0.0598605 -0.05785801 -0.050828546 -0.0025855945
000370 73 8e 40 3d 41 ac 17 3d 51 db f1 3c 73 50 d7 3c
       0.04701085 0.03702951 0.029523524 0.026283478
000380 fc 7b ee 3b 92 09 5d 3c 79 2c 85 3c 54 0d f9 3b
       0.0072779637 0.013491051 0.016256558 0.007600466
000390 a2 d3 7f 3c 25 e9 a6 3d 76 26 85 3d 3d 37 e1 3c
       0.015614422 0.081499375 0.065014765 0.02749216
0003a0 f6 10 37 3c 05 8c be 3c fe 0b 6d 3c bc 6c 05 bc
       0.011173477 0.023260126 0.014468191 -0.0081436
0003b0 b6 73 1c bd d1 36 b2 bd d2 b8 f5 bd 56 5a 57 bd
       -0.038196288 -0.08701862 -0.11998142 -0.052576385
0003c0 b6 a9 fe bd 12 90 df bd 45 78 bc bd 4d 29 dc bd
       -0.124347135 -0.10916151 -0.09202627 -0.10750065
0003d0 41 06 91 bd bf e4 99 b9 a0 ae 27 bc d5 dc 4b 3d
       -0.07081271 -0.00029352863 -0.010234505 0.04977115
0003e0 c8 0d c9 3c 1c c7 bf 3c 14 ed 8e 3a 81 a9 dc bc
       0.024542704 0.023410372 0.0010904395 -0.026936295
0003f0 88 ad 84 3c 18 03 91 bc 2e d5 c4 bb d1 5b a0 3c
       0.016196027 -0.01770167 -0.0060068583 0.019575031

bias f4 [128]
000000 69 f4 38 3e 20 d8 74 3d 16 df 9e bd 2e ad b2 3d
       0.18061985 0.059776425 -0.07757394 0.08724438
000010 74 6f fe 3a 06 af 18 bd 7c ee a6 3d 0e 1c 14 bd
       0.0019411878 -0.03727629 0.08150956 -0.036159568
000020 70 a2 09 3e 84 60 56 bc 23 8e 20 3e 53 14 fb 3c
       0.13440871 -0.013084535 0.15679221 0.03064934
000030 5f 97 f5 3d 0d 87 a5 3d e2 cd 35 3d 18 cd 9e bd
       0.11991762 0.080823995 0.0443858 -0.07753962
000040 01 e3 63 3d 6b b0 84 3d b6 38 a4 3d 2e 2a 0d 3c
       0.05563641 0.064789616 0.08018629 0.008616013
000050 d8 b0 85 3d 1a ec dd 3d ed 80 d8 bd 57 12 d0 3d
       0.06527871 0.108360484 -0.10571466 0.10159748
000060 6e f7 15 bb f7 63 12 3e 16 fa d9 3d 5b 31 53 3d
       -0.0022883075 0.14295946 0.10643403 0.05156074
000070 bb 69 aa bd d9 25 b5 bc 28 a5 4f 3a bd c7 a7 b9
       -0.08320948 -0.022112774 0.00079210335 -0.0003200154
000080 a2 99 d5 3d bf 7d 3b 3e d7 8f 92 bd 79 12 75 3d
       0.10429694 0.18309687 -0.071563415 0.05983207
000090 a5 14 8c 3c 75 b9 84 3d b8 1b f8 3c 8f 8f 6b 3d
       0.017099688 0.064806856 0.030286655 0.057509955
0000a0 e2 32 f2 3d 1b 73 1e 3d a4 ac c8 bd 41 d8 d1 bc
       0.118261114 0.038683992 -0.097985536 -0.025615813
0000b0 5e f2 5e bd c3 e3 3b bd 75 a4 b1 3c c2 f9 9a bd
       -0.054430358 -0.045871507 0.021684865 -0.07567169
0000c0 e7 1c 02 3e 35 84 ac bd 1e ba 29 3d 66 b5 e7 bc
       0.12706338 -0.08423654 0.04143726 -0.02828474
0000d0 0f cd 5e 3c 87 88 14 3d 7a 6a 31 3d c0 b0 a7 3c
       0.0135986945 0.036263015 0.043314435 0.020470023
0000e0 b3 8e 9c bd e0 34 99 bc bc 6d 56 bd c7 cc 74 bc
       -0.07644405 -0.01870197 -0.052350745 -0.014941401
0000f0 9a 69 a9 3d a7 56 d8 3b 84 82 8c 3d 07 02 6b 3e
       0.08272095 0.0066021266 0.068608314 0.22949992
000100 5b 0c 42 be d1 99 4b 3e 3d 95 42 3d ce 0a 11 bd
       -0.18950026 0.19882895 0.047505606 -0.035410695
000110 bc b1 34 3d 83 24 8a 3d 31 0e 07 3e f8 5a fe 3d
       0.044114813 0.06745245 0.13189007 0.12419695
000120 28 a9 9d bd c2 53 79 bd 36 50 d4 3c 61 69 94 bd
       -0.076982796 -0.060870893 0.025917154 -0.07246662
000130 1a d8 2d bc e6 09 fb 3c 62 6e 41 3d 88 1c 44 3e
       -0.010610605 0.030644368 0.04722441 0.19151509
000140 c7 89 c3 3b 81 79 d9 3c de 1d 1d 3e 38 e7 bf bb
       0.005967352 0.026547195 0.15343425 -0.005856421
000150 3d fd 31 3c d8 63 fc 3d 15 7a c2 3d 4a bb 8a 3d
       0.010863599 0.12323731 0.094959415 0.06774004
000160 26 ef 02 be 8b 2a 8f bd b3 86 97 3d d0 20 55 bd
       -0.1278654 -0.06990536 0.07398739 -0.052033246
000170 c6 b9 bf 3c 8c ed 88 3d 3a f6 c8 3c c4 05 0e bd
       0.023404013 0.066859335 0.024531472 -0.034673467
000180 09 36 85 3c 15 2f 48 bc 49 b3 1e bd 7a 80 c3 3d
       0.016261118 -0.0122182565 -0.0387452 0.09545989
000190 8b c3 1e 3d 85 c7 c0 3c b0 b4 c2 3d 1c 75 ce 3d
       0.038760703 0.023532638 0.0950712 0.100809306
0001a0 15 08 09 3d b4 46 15 3e 68 61 07 3e 79 0f 12 3d
       0.033454973 0.14577752 0.13220751 0.035659287
0001b0 fb ed 70 3c 3d fa a8 bc 7f 07 8c bc 35 1f a5 bd
       0.014705176 -0.020627135 -0.017093418 -0.08062593
0001c0 f1 b6 c4 bd 6c 15 43 3b e4 b7 70 3c c0 51 1b 3d
       -0.09605206 0.0029767407 0.01469228 0.03791976
0001d0 93 91 31 bb 33 76 19 bd 88 88 cb 3d d7 c5 e1 bc
       -0.0027094826 -0.03746624 0.09938151 -0.027560158
0001e0 73 e6 a1 bd 08 9e c0 3d 13 0e 4d bd 18 4c d4 bb
       -0.07905283 0.09405142 -0.05006225 -0.0064787976
0001f0 2f 03 0e bd 7f b5 69 bb 03 f0 61 bd 6b 84 15 3c
       -0.034671005 -0.0035661159 -0.055160534 0.009125809

weight f4 [10, 128]
000000 4e a4 da bd 78 87 50 3d 4f 40 98 3d 70 83 e8 bd
       -0.1067587 0.050910443 0.07434141 -0.11353195
000010 f6 63 9d 3e 1c 23 a4 bc 82 3f 14 3e 1a 34 84 3d
       0.30740327 -0.020036273 0.14477351 0.0645525
000020 b9 11 a7 be 5d 29 2e 3e 0e d0 fd bd a6 6f 45 3e
       -0.3263071 0.17007966 -0.12393199 0.19280872
000030 2f 9b 41 be 60 a3 95 be b6 f5 be be 39 d4 94 be
       -0.18906854 -0.29226208 -0.37296838 -0.29068163
000040 e9 01 9a be a9 eb d1 bc a7 8b 4f be 21 f6 a2 bd
       -0.30079582 -0.025625067 -0.20268117 -0.079571016
000050 e8 12 76 be b9 f0 ab be 47 23 ba 3e 11 5b ea be
       -0.2403065 -0.33582094 0.3635504 -0.45772603
000060 77 d6 5e be ed e5 c8 be 1e 47 da be 0c 0f e0 bc
       -0.217615 -0.3923792 -0.42632383 -0.027350925
000070 86 41 0d 3e 6f d2 1a 3e 8a 00 d7 bd f3 1b 87 3e
       0.13794526 0.15119337 -0.1049815 0.2638851
000080 07 f0 9c be 1d d3 88 be a8 3c 71 be 28 e8 95 3d
       -0.30651876 -0.26723567 -0.23558295 0.07319671
000090 ce 74 c3 3e ec 9f 73 be c6 0b 42 3e ec 05 6c 3d
       0.38175052 -0.23791474 0.18949804 0.057622835
0000a0 58 e8 04 bf 7a 40 ec bc 4a a7 d3 bd 4f 53 fc 3d
       -0.5191703 -0.028839339 -0.10334642 0.12320577
0000b0 f5 06 8f be d4 ee 02 3e 83 7e 54 bd 44 8f 2f 3f
       -0.27934995 0.12786418 -0.051878463 0.6857798
0000c0 2f 91 c9 bd 92 c1 65 3d a6 4e 91 3e d6 ae 57 3e
       -0.09842145 0.056092806 0.28380316 0.21062788
0000d0 04 51 22 be 61 45 54 be 33 75 ad 3c 9b 7b ab 3d
       -0.15851218 -0.20729591 0.021174049 0.08373185
0000e0 f2 c8 87 3d 98 60 9f 3e d9 4c 51 3d c2 5c ae bc
       0.06630124 0.31128383 0.05109868 -0.021284465
0000f0 3e c5 30 be 32 b4 91 3e 26 cc 2c 3e 90 9d cb be
       -0.17262742 0.2845779 0.16874751 -0.39768648
000100 43 91 3d be b6 20 43 be 03 33 ff bd 72 34 a8 be
       -0.18512444 -0.19055447 -0.124609016 -0.32852513
000110 5b 83 50 3d 39 8b c0 bc 9f a6 8f be 68 fb ac 3e
       0.05090652 -0.023503887 -0.2805681 0.33785558
000120 12 4f c7 bc ed fd 51 3e 10 a7 9d 3d ac dd 48 be
       -0.024329696 0.20507021 0.0769788 -0.19615811
000130 2d 26 a6 be 2b 8e 47 3d 0e 44 a0 be 19 b0 a6 3e
       -0.32451 0.048719566 -0.31301922 0.32556227
000140 59 e5 06 bf ef 45 d3 3d cb e0 46 be d3 09 be bd
       -0.52693707 0.10316073 -0.19421689 -0.092792176
000150 32 c8 cb be 1b df 2a be 6e 4b 2a 3e 11 65 03 3f
       -0.39801174 -0.1668667 0.16630337 0.5132609
000160 9b f7 5a 3e a5 42 e3 3e be 78 6b be ab 08 0e 3e
       0.21383516 0.44386783 -0.22995278 0.13870494
000170 43 ce b7 3d d7 b5 d1 be 73 1f 2e 3e 39 87 92 3e
       0.08974888 -0.40959045 0.17004184 0.28618792
000180 79 e5 11 3e b6 81 bb bd f2 76 89 bd b1 62 f9 bd
       0.14247693 -0.091556 -0.0671214 -0.12177027
000190 81 c5 c8 be 6c f1 f2 3d 1a 28 96 be 65 51 c8 bd
       -0.39213184 0.11862454 -0.2932747 -0.0978115
0001a0 4f a5 88 3e 6c a1 f5 bd 53 ff 24 3e 53 b8 4c 3e
       0.2668862 -0.119936794 0.16113023 0.19992189
0001b0 b1 3e c0 3e c9 e3 b2 3e c4 24 b9 3e 6f 23 2e 3e
       0.3754783 0.3493941 0.36160862 0.17005704
0001c0 f6 57 36 3d 30 24 55 3e 58 dc 52 be af 05 99 be
       0.04451748 0.20814586 -0.20591867 -0.2988715
0001d0 17 60 4c 3e c2 a6 ae 3d f8 4f e4 bd a9 33 af 3d
       0.1995853 0.085279 -0.11148065 0.08554775
0001e0 1e 77 c6 3e f9 76 4f 3c 03 68 ab 3c 0c 09 15 bf
       0.38762754 0.012662643 0.02092362 -0.5821693
0001f0 46 d1 04 3e c4 1f c8 3d 3a 54 c6 3d 59 cf 89 3e
       0.12970456 0.09771684 0.09684034 0.26916006
000200 db 91 e8 bb 36 29 d1 3d 68 22 27 3e 27 c6 75 3e
       -0.0070974655 0.102129385 0.16321719 0.2400137
000210 5e a5 c2 3c b2 96 86 bd d9 40 9f be 4c a6 ab 3e
       0.023760494 -0.065717116 -0.31104162 0.33525312
000220 60 2b 94 3e 6e 22 0f be 67 21 65 3d 01 43 aa be
       0.28939342 -0.13977978 0.055940058 -0.33254245
000230 f4 b5 18 3f c3 dc bd bd 2d dd 81 3e 20 fa 0e 3f
       0.5965264 -0.092706226 0.25364056 0.5585041
000240 8c db 6e bc 6b c4 5e 3e 1f 0e 4c 3e 50 c4 70 3e
       -0.014578711 0.21754615 0.19927262 0.23512387
000250 b9 91 b8 3d e5 6c b7 bd 52 e8 56 bd 05 72 56 be
       0.090121694 -0.08956317 -0.05246765 -0.20941932
000260 d0 b2 1b bc 15 12 8f 3e db 8e 6d be 03 47 07 be
       -0.009503081 0.27943483 -0.23199026 -0.13210683
000270 a9 ac 99 bd 7c c6 ee be 4d d7 7d bd 76 98 e1 bd
       -0.075036354 -0.46635807 -0.061972905 -0.11015408
000280 3f 4f 0b bd 3d 99 2c be 1b a1 6c 3e 99 57 19 bb
       -0.03401112 -0.16855331 0.23108332 -0.002339816
000290 6d 0c a2 bd af 22 be 3e e0 6d 6b 3e 71 86 32 3e
       -0.07912526 0.37135836 0.22991133 0.17434098
0002a0 0e 83 89 3e 9f c5 92 3d 91 21 9c 3e e9 5a 30 3c
       0.268578 0.071665995 0.3049436 0.010763862
0002b0 c8 a1 4c be 8d 91 25 3e e1 0a 2c be 3b 9a 4b be
       -0.1998359 0.16168804 -0.16801025 -0.19883053
0002c0 64 cb a1 bd 7d bf 7e 3e 65 5f 12 bf ca 93 a0 be
       -0.07900122 0.24877734 -0.5717681 -0.31362754
0002d0 60 07 1a 3e 53 e4 21 bc c0 b9 b5 be b0 62 25 3f
       0.15041876 -0.009881097 -0.35493279 0.6460371
0002e0 c1 d4 02 be ef ca 99 bd a8 e1 35 3e ed 64 9a be
       -0.12776472 -0.0750941 0.17761862 -0.30155125
0002f0 42 6a 89 be 23 5f 42 be 90 d3 72 3e 28 ea 72 3e
       -0.2683888 -0.18981604 0.23713517 0.23722136
000300 44 45 7c 3d a1 b1 f2 3d 26 36 bc bc f1 36 86 3e
       0.061589494 0.11850286 -0.022975039 0.26213792
000310 d1 1b 99 3e 75 df 8b 3e 4f a9 5b be 69 ac ba be
       0.29904035 0.27318922 -0.21451305 -0.36459664
000320 5e af 93 3d 6c bb 46 be bb d3 7f bd c4 2e 8b 3e
       0.07211183 -0.19407433 -0.06245778 0.27184117
000330 19 c2 ff 3b c0 10 9d 3e b3 15 93 bd 0d e7 4e 3f
       0.0078051207 0.30676842 -0.07181873 0.80821306
000340 15 59 f9 bb b3 ca 16 3e 4f cf a7 be b0 f0 93 3d
       -0.0076094964 0.14725761 -0.3277535 0.07223642
000350 69 1d 50 3e 73 b6 a9 3d 82 94 0c bd 87 15 19 3f
       0.20323719 0.082867526 -0.034321316 0.59798473
000360 f8 f4 2c 3d e9 52 32 3d 21 21 a6 be 35 a7 b7 3d
       0.042225808 0.0435361 -0.3244715 0.08967439
000370 77 7f 48 be 5b fb 4f 3e bc 70 53 3e f3 89 77 be
       -0.19579874 0.20310728 0.20648474 -0.24173717
000380 9a 29 46 3e ab b8 f9 3d d0 36 92 bb fe 42 11 bf
       0.19351807 0.12193426 -0.0044621006 -0.56742847
000390 7f 35 b1 3d 59 26 48 be 2e 0c 13 3e 9d 9e 42 3e
       0.08652782 -0.19545878 0.14360115 0.19005819
0003a0 61 b7 91 3e b4 ba 83 be 05 45 d2 be 3e 53 ff 3e
       0.2846022 -0.2572838 -0.41068283 0.49868196
0003b0 db 61 3e be 50 58 94 be b0 d1 95 be f5 83 fa bb
       -0.18592016 -0.28973627 -0.2926154 -0.007645125
0003c0 99 b8 a6 3d 7a c0 88 be 42 5c de 3d 60 30 c4 3d
       0.08140678 -0.26709348 0.108574405 0.09579539
0003d0 36 e7 2b 3e 82 4b 0b be de 2f 0b be c7 4c 7b 3d
       0.16787419 -0.13603023 -0.13592479 0.061352517
0003e0 ed 52 10 be ce 99 1c be f9 da cd 3e 4a a8 d2 3e
       -0.14094134 -0.15293047 0.40206125 0.4114402
0003f0 a7 8c 85 3a 28 94 a8 bd b3 77 4a 3e fc 3e ad be
       0.0010189012 -0.082313836 0.19772224 -0.33837116

bias f4 [10]
000000 7a a9 4e be d6 a8 ad 3d 91 9d 82 3d b8 fc d4 bd
       -0.20181838 0.084794685 0.0637771 -0.10399765
000010 04 90 70 bb 05 61 b4 3e 25 9a d4 3c fa de 85 3d
       -0.0036706934 0.3523027 0.025952408 0.0653667
000020 62 93 15 be 59 46 e5 3a
       -0.14607003 0.0017492279
